model_cnn.pth (torch, 426639 bytes, 8 tensors)

conv1.weight f4 [6, 3, 5, 5]
000000 95 2d f2 bb 13 ae 07 3d 4a 91 77 be 44 47 b1 3d
       -0.0073906877 0.033124994 -0.24176517 0.08656171
000010 e8 7c 92 3c 9a 34 b1 bd 79 54 b6 bd 54 80 7f bd
       0.017881826 -0.08652611 -0.08902831 -0.062378243
000020 5a 5a 75 bd e7 af a2 3c 6a d3 9d bc ec b6 d5 bd
       -0.05990062 0.019859267 -0.01926585 -0.1043528
000030 80 6c 12 3b 2f 21 d9 bd d7 34 0f 3d 4d a8 b5 3d
       0.0022342503 -0.106020324 0.0349625 0.088699915
000040 bd 4d 13 bd aa ac f9 bd e9 7b 64 3b a6 4f 37 be
       -0.03596281 -0.12191136 0.0034863895 -0.17901477
000050 59 ea ce bd 67 09 68 3d e5 42 62 3d 8f 33 38 be
       -0.10103292 0.05664959 0.055239577 -0.17988418
000060 43 f3 f0 bd 09 94 43 bd 5e 6e e5 3d 02 f1 01 be
       -0.117651485 -0.0477486 0.112026915 -0.12689593
000070 6b f9 bd 3d 7a 9d 1a 3e de c5 2b 3e 7d 9a 05 3e
       0.09276088 0.15099135 0.16774699 0.13047214
000080 5c 6f be 3d de 41 1b 3d de bb f6 3d f1 a9 a7 bd
       0.09298584 0.037904613 0.120475516 -0.081867106
000090 ed e2 fa 3d 3e 27 d0 bd 01 10 9e bc f7 4f d5 3d
       0.12250314 -0.10163735 -0.01929474 0.10415643
0000a0 bc d4 01 3e 35 7c 84 3c 4a 1a 51 bc 9e 76 8d 3d
       0.12678808 0.016172508 -0.012762615 0.0690739
0000b0 2e 1a 32 3e 86 97 11 3e 0a 38 b8 3b 64 85 e9 bd
       0.173928 0.14217958 0.0056219148 -0.11402395
0000c0 fe c1 29 3e 4d 1b a0 3d 56 e8 99 bd 10 38 a5 bd
       0.16577908 0.07817707 -0.07515018 -0.08067334
0000d0 05 c4 36 3c 2c c5 91 bc 87 f9 28 bd 61 20 e8 bc
       0.011155133 -0.017794214 -0.041253593 -0.028335752
0000e0 c0 e9 36 3b 36 54 a0 bd be 14 99 3d 5d fa 43 bd
       0.0027910322 -0.07828562 0.074746594 -0.047846187
0000f0 96 d7 dd 3d eb 9f 9f bd fd 29 c7 bd 98 c3 33 bc
       0.108321354 -0.07794174 -0.097248055 -0.010971926
000100 01 6a 15 be 1e b6 1e be 4f a4 da 3c e2 99 c2 bc
       -0.14591219 -0.1549916 0.026689677 -0.023755018
000110 fb b1 1e be 08 6c 5d bd 88 a3 c7 bd 32 8f 88 3d
       -0.15497582 -0.054058105 -0.09747988 0.06667937
000120 90 2c da bd 64 5d 20 3d 28 ef 26 3d 00 e1 8a 3d
       -0.10653031 0.039151564 0.04075542 0.067811966
000130 c4 b5 4e bc 8b 82 6c 3d 64 73 4a 3d 72 68 7a bd
       -0.0126165785 0.057741683 0.04942645 -0.061134763
000140 0c 81 0d be f4 11 4f 3d e4 b0 0d be 0b c8 71 bd
       -0.13818759 0.05055423 -0.1383701 -0.059028666
000150 32 5a ac bd 30 96 a6 3d 27 8e a8 bd 75 be a6 bd
       -0.08415641 0.08134115 -0.082302384 -0.081417955
000160 ec 11 d6 bc 74 27 b4 bd d8 f9 02 3d 2c 7f 82 bd
       -0.026131593 -0.087965876 0.03197655 -0.06371912
000170 6f e1 16 bd c3 44 f8 bb 11 6e f1 3c 6a 88 13 3c
       -0.036836084 -0.0075765564 0.029471429 0.009004692
000180 5f 72 68 3c c6 d4 5e 3d d3 e5 92 3d 68 fa c4 3d
       0.014187424 0.054402135 0.07172742 0.09618074
000190 6c 11 1b bc 88 fd eb bd e7 31 a8 bd 85 c8 c4 bc
       -0.009464603 -0.115229666 -0.08212643 -0.024021396
0001a0 35 a4 78 bd c8 5d b4 3d ad ef 93 bd 27 3e 34 3d
       -0.060703475 0.0880695 -0.07223449 0.044004586
0001b0 5a 22 5b bd f8 d9 f1 bd d6 75 92 bd 10 e8 79 bd
       -0.053499557 -0.11809152 -0.07151382 -0.061012328
0001c0 6e c4 f1 3d 2c 5d d5 bd d0 b6 85 bd 3c 94 1b 3d
       0.11805044 -0.10418162 -0.06529009 0.037983164
0001d0 9d e7 60 3d 20 cc ae bd 65 56 4d 3c fa 05 88 bc
       0.054908384 -0.085350275 0.012532805 -0.016604412
0001e0 70 d6 39 bc 9f c9 75 bd 8c 70 ff 3c 7f 4b eb bc
       -0.01134263 -0.060006734 0.031181596 -0.028722523
0001f0 17 de 99 3d fe e5 eb bd ed 12 69 bc 2d 71 40 bd
       0.075130634 -0.11518477 -0.014225704 -0.046982933
000200 1f 1d b4 bd f5 d1 fc bd f0 5f 2e bd 29 58 a4 bd
       -0.08794617 -0.123447336 -0.042571962 -0.08024628
000210 d3 03 aa bd 45 e9 d1 3c 4d 87 89 3d 67 04 09 3d
       -0.08301511 0.025623927 0.0671526 0.033451464
000220 77 a1 c0 bd 59 ed 80 bc 14 9d 65 bd a1 62 aa bd
       -0.09405797 -0.015738176 -0.056058004 -0.08319593
000230 e3 8d ee bd 8c 16 1e bd 90 b3 6c 3d cc fa 01 bd
       -0.116481565 -0.03859572 0.05778843 -0.03173332
000240 ab 77 70 3c 41 8c 5e 3d e7 cc 91 bb 87 62 0d bd
       0.014676969 0.054332975 -0.004449475 -0.03451779
000250 94 16 08 bd fa 6e bd bd 23 25 26 be 84 99 d1 bc
       -0.033224657 -0.09249683 -0.16225104 -0.025585897
000260 2a b8 8b 3d db 96 e6 bd 67 86 a8 3c 25 45 71 3c
       0.06822236 -0.11259242 0.0205719 0.014725958
000270 c7 d3 a1 3d e5 05 58 bd 25 86 c7 3d 07 d8 da 3b
       0.079017214 -0.052739996 0.09742383 0.0066785845
000280 5d f3 0f be ca 6e 5c bd 19 5b f4 3c 77 f2 67 bd
       -0.1405768 -0.053816594 0.029828595 -0.056627717
000290 25 86 76 3d ab 78 22 bd 4f 09 83 bd 3d f1 67 bd
       0.060186524 -0.03966586 -0.0639826 -0.056626547
0002a0 50 1b 70 3d 77 02 6d bd 78 f2 53 3c 09 57 89 3d
       0.058619797 -0.05786368 0.012936227 0.06706054
0002b0 02 06 50 3d 44 71 e1 3d 2f 8e 92 3d e4 b2 61 3d
       0.05078698 0.11007932 0.071560256 0.055102244
0002c0 a5 bd cd bd 6a 7b 1a be fd 0b e0 3d 63 c2 0b 3d
       -0.100459374 -0.15086141 0.109397866 0.03412093
0002d0 8d 33 01 3e 4c 1e 73 3d 79 95 99 bd ad 3b ed bc
       0.12617321 0.059355065 -0.07499213 -0.02895912
0002e0 78 e5 80 bc 70 bc 1e be f1 87 26 be 00 3c 81 bd
       -0.01573442 -0.1550157 -0.16262795 -0.06310272
0002f0 1f 97 6d bd 74 0a 7f bd 32 28 a0 bc 52 52 1e bd
       -0.05800545 -0.06226583 -0.019550417 -0.038652726
000300 40 34 16 be 4b c7 35 3d b9 f5 06 3d e1 5d c0 bc
       -0.1466837 0.044379514 0.032949183 -0.023482265
000310 ee 7d 8c 3d 29 71 a6 bd 71 13 e4 bd 75 1a 7e bd
       0.06859957 -0.08127052 -0.11136521 -0.06203695
000320 5d 6f db 3d d3 38 f5 3d 56 bc 2b 3e 38 08 72 3c
       0.107146 0.11973729 0.16771063 0.014772467
000330 aa 96 19 3e 68 2f 32 be 1f b5 ca bc e9 70 64 be
       0.1499888 -0.17400897 -0.024744568 -0.22308697
000340 07 c2 47 be 8e 61 eb bc 39 59 eb bd e5 bf 10 bd
       -0.1950761 -0.028733041 -0.11491627 -0.035339255
000350 db a3 d8 bd d1 ee 81 be 92 33 30 be 96 aa 24 bd
       -0.10578128 -0.25377515 -0.17207173 -0.040201746
000360 6b 9b 82 bd 18 4a 20 3d 10 47 a4 3d 22 20 0d 3e
       -0.063773 0.03913316 0.080213666 0.13781789
000370 47 ec 15 bd f0 de 23 3d 1f 84 08 be 61 2a 4b bd
       -0.036602285 0.04000753 -0.1333165 -0.049600963
000380 c7 0c 80 bd 91 d4 f5 3d 31 4b 25 bc 3d 44 00 be
       -0.06252437 0.120034344 -0.010088728 -0.12526031
000390 d8 15 13 bd 50 54 88 bd e4 36 e8 bd a7 88 a3 3d
       -0.035909504 -0.06656706 -0.113385946 0.07985049
0003a0 d6 ac 22 bd 46 a9 3d be 68 8f d5 3d 4a b5 10 3c
       -0.03971561 -0.18521604 0.10427743 0.008832285
0003b0 42 53 aa bd cc 45 a3 3d e2 7f 31 bd 93 bb c4 bd
       -0.083166614 0.07972297 -0.04333485 -0.096060894
0003c0 e1 77 81 3d 29 76 d8 bd 9e 7a d1 bd cb 7a 03 3e
       0.06321693 -0.10569412 -0.102284655 0.1283981
0003d0 8d 89 1b bd f8 c7 68 bd 9a b2 06 3d 48 e5 df bd
       -0.037972976 -0.05683133 0.03288517 -0.10932404
0003e0 fd 2f 47 be 36 dd b9 3d e1 37 2e bc fc 4a 07 3d
       -0.194519 0.09075396 -0.01063344 0.033030495
0003f0 8b de 0c 3c 4c af 69 3d fe 54 88 3d 87 96 08 3e
       0.00859798 0.05705194 0.06656836 0.13338672

conv1.bias f4 [6]
000000 72 f9 a1 bd fa d3 11 bd c6 18 73 3d b5 77 f9 3d
       -0.07908906 -0.035602547 0.059349798 0.121810354
000010 29 b3 e9 3d ee bc 92 3d
       0.11411125 0.07164942

conv2.weight f4 [16, 6, 5, 5]
000000 93 d1 cf bd 0a 77 09 be ee c7 42 be 36 fb 27 be
       -0.10147395 -0.13424316 -0.1902158 -0.16404423
000010 54 43 bb bd 7e c2 bc 3b 01 59 c3 3b 8e fa 2e 3d
       -0.09143701 0.00576049 0.005961538 0.042719416
000020 4e db 68 bc de 80 76 3d 30 c8 9f bd f8 9c 90 3c
       -0.014212443 0.06018149 -0.078018546 0.017652974
000030 76 08 76 bd fe 75 04 be a3 4f 04 bc 7d 91 20 bc
       -0.060066663 -0.12935635 -0.0080756275 -0.009800312
000040 a9 ef ec 3b c5 4e 03 be 01 4b 84 3c f8 2a 82 bd
       0.007230718 -0.12823017 0.016149046 -0.06355852
000050 fd c7 24 bd 06 46 49 bd 9c 62 01 bd 64 ca a2 bd
       -0.040229786 -0.049139045 -0.03158818 -0.07948759
000060 44 eb 23 bd 2d 61 9e bd d4 b0 41 bc af 5e 9c bd
       -0.04001929 -0.077333786 -0.011821944 -0.07635247
000070 31 37 e9 bd 56 2c 24 bd 11 6c 5f bd f1 4d 1a bd
       -0.1138748 -0.040081345 -0.05454642 -0.037671987
000080 6f 22 a3 bd f1 1e 3f bd 27 de f0 bd 0a f4 b7 39
       -0.07965552 -0.046660367 -0.11761122 0.00035086303
000090 7e f8 0f bd a9 4d 3b 3d 89 2c 65 bc ff e1 eb bc
       -0.03514909 0.04572836 -0.013987669 -0.028794287
0000a0 1f 7f 58 3d 62 ea ac bd cf a6 3b 3d 21 85 d9 bc
       0.052855607 -0.084431425 0.045813378 -0.026552739
0000b0 4a 47 23 bb ae c7 21 3d 65 3c 0b bd a7 f0 b1 bd
       -0.0024914318 0.03949707 -0.033993144 -0.08688479
0000c0 57 79 45 3d 01 f1 b1 3c ea ac 73 be a3 16 0d be
       0.04821142 0.021721365 -0.2379643 -0.13778166
0000d0 8f 50 7d bd 35 dc 6f bd 9c b5 78 be 4c d9 d7 bd
       -0.061844405 -0.058559615 -0.24288028 -0.10539493
0000e0 6c 59 1d be c9 2a 07 be dd cb 7d bc bb 8f fd bd
       -0.15366143 -0.13199915 -0.015490499 -0.1238093
0000f0 70 90 23 bc 0e fe 3c bd fe c5 79 bd f2 af 83 bd
       -0.009983167 -0.046140723 -0.060979836 -0.06430043
000100 69 3f 09 be e4 b9 83 3d 51 ec 51 3d 6e d6 91 bd
       -0.13403095 0.0643194 0.05125076 -0.07120977
000110 66 07 17 bd 1b 41 09 bd 05 4d e3 3c 5b 1e 1f bd
       -0.03687229 -0.033509355 0.027746687 -0.03884731
000120 96 a6 23 3c 9a 9c a5 3a 4b b5 16 bd 04 a3 f8 3d
       0.009988448 0.0012635172 -0.03679399 0.12140468
000130 7a ce 0a 3a a5 29 63 3d 53 84 c4 3d 03 f5 29 3d
       0.00052950496 0.055459637 0.09595551 0.041493427
000140 42 21 d7 3d 7b 27 2a bc 3f 9d d1 3d a0 84 c2 3d
       0.1050439 -0.010385389 0.102350704 0.094979525
000150 11 94 b2 3d bd 2c 67 ba 5f f9 68 bd a9 82 e6 3d
       0.08719648 -0.0008818617 -0.056878444 0.1125539
000160 88 3f b8 3d 0f 2f 35 3e 70 33 17 3e 5b 23 33 bd
       0.089964926 0.17693733 0.14765716 -0.04373489
000170 ff 65 d8 39 29 5d 86 bc af 62 e9 bc d6 15 0f 3e
       0.00041274723 -0.016401844 -0.028489439 0.13973173
000180 50 41 9e 3c 33 b2 a8 3d 5d 9d a7 3d 4c 04 16 3e
       0.019318253 0.08237114 0.081843115 0.14650077
000190 83 65 fa bd 22 ef 8d bd 4f 7d b1 bd 52 82 19 be
       -0.12226393 -0.069303766 -0.08666479 -0.1499112
0001a0 d5 04 8d be 63 7c 0a be e2 b8 c2 bc e8 75 37 bd
       -0.2754275 -0.13524012 -0.0237698 -0.04479018
0001b0 cf 4a 11 be ce 70 0a be e8 70 a5 bd 21 0b 1b be
       -0.14188693 -0.13519594 -0.08078176 -0.15140964
0001c0 ea 4b 6f bd f1 5f ce bd 7e ea 4b be 9b cc e1 bd
       -0.058422007 -0.10076893 -0.1991367 -0.110253535
0001d0 f8 2c 46 be c2 1f 58 be 49 4b 7a be 5e de 47 be
       -0.19353092 -0.21105865 -0.24442782 -0.1951842
0001e0 c8 2d 57 be 94 69 29 be f9 3e 79 be 1d 34 68 be
       -0.21013558 -0.16544181 -0.24340428 -0.2267613
0001f0 8d 7e 67 be c6 24 8b bd 65 80 37 bd 66 76 8a bd
       -0.22606869 -0.06794123 -0.04480018 -0.06760864
000200 c8 27 c3 bd 22 0d 96 bd 38 e7 05 bd 30 13 4f bc
       -0.09529072 -0.07326724 -0.03269121 -0.012638852
000210 d5 98 ac bc 03 e4 ca bc 43 ba 8b bd 32 ef 25 bd
       -0.02106897 -0.024766928 -0.06822636 -0.040511318
000220 81 36 47 bc 9c c2 db 3c 88 cb d5 bc 8a 35 cd bc
       -0.012158991 0.026826195 -0.026098028 -0.025049943
000230 e7 83 2b bd 34 2b a3 bc 05 4d 34 bd ab e6 8a bd
       -0.04187384 -0.019918062 -0.044018764 -0.06782278
000240 55 8d 05 bd c9 12 20 bd e1 6f 16 bd d0 5b d5 bd
       -0.032605488 -0.039080415 -0.03672779 -0.104179025
000250 d3 11 8a bd bc 32 3a bd ef f8 86 bd f7 c2 6d 3c
       -0.06741681 -0.04545854 -0.06590449 0.014511815
000260 8f 50 cb bd 0e 3b 52 be fa ea 68 be 1d 6d 71 3c
       -0.09927475 -0.2053034 -0.22745886 0.014735487
000270 69 1e 70 bd 66 14 e4 3b 76 8e 84 3d 9d 51 91 bd
       -0.05862275 0.0069604395 0.06472485 -0.070956446
000280 43 63 0d 3e 01 1d dd 38 5c 65 74 bc b3 89 06 3d
       0.13807397 0.000105435036 -0.014916744 0.032846164
000290 de 14 73 be 42 c8 26 3d 98 f9 15 3d ee 3f ce bd
       -0.23738429 0.040718324 0.036614984 -0.10070787
0002a0 ed 56 18 be e4 8c fc bd a4 5f ff 3d b5 c2 9c bc
       -0.1487691 -0.1233156 0.12469414 -0.019135812
0002b0 13 cc 05 3e dd da 24 bb 78 80 3c be e0 f0 59 3c
       0.1306613 -0.0025154867 -0.18408382 0.013302058
0002c0 2a 6b 96 bb 24 2a 04 bc 4c 37 35 bd d7 41 11 3d
       -0.0045904117 -0.008066688 -0.04424219 0.03546318
0002d0 cb e5 23 3d 48 4d c5 3c d9 4b 1d bd 1b 19 8b bc
       0.04001407 0.024084702 -0.038402412 -0.016979745
0002e0 69 71 c6 bd b8 ff 2c 3d 99 ab 23 3c 24 4b 20 bd
       -0.096896 0.04223606 0.009989643 -0.03913416
0002f0 a8 68 f5 bc a3 e1 8d bd a5 5d 6e bd 73 20 49 bc
       -0.02995713 -0.069278024 -0.058194775 -0.012275803
000300 e9 e4 02 3d a7 74 bc bd 9e 56 b3 bd 1b 10 55 bd
       0.031956587 -0.09201937 -0.08756755 -0.052017312
000310 7f 18 3e 3d c0 75 a6 3c e8 f4 7a bc 69 44 1a 3d
       0.04641008 0.02031982 -0.015317179 0.037662897
000320 a0 da 0d be 4a 9c 9f bd 04 0a f3 bd 0c 84 9e bd
       -0.1385293 -0.07793482 -0.11867145 -0.0774003
000330 49 d5 c7 bd da 18 10 bd a8 b5 99 bd 2d 1e 2e be
       -0.09757478 -0.03517995 -0.07505351 -0.17003699
000340 ef a8 d7 bd 04 9b 0e be 01 f4 5b bd c6 ad 7e 3a
       -0.105302684 -0.13926321 -0.053699497 0.00097152253
000350 46 c4 45 bd 8e 4e 01 bc 6b b9 a0 bd 78 64 e1 3d
       -0.048282884 -0.007892264 -0.07847866 0.11005491
000360 75 0a b4 3d 5e 30 96 3d 60 f4 00 3e 4f d6 f3 3d
       0.08791057 0.07333444 0.12593222 0.119061105
000370 fa d3 4a 3e ce 86 40 3e 58 34 79 3e 2d 9c 60 3e
       0.19807425 0.18801424 0.24336374 0.21934576
000380 51 21 d4 3d c0 71 fe bc ef 23 a1 3d b1 16 78 bd
       0.10357917 -0.0310601 0.07868182 -0.060568515
000390 8d 98 da bd 9d ec 48 bd c8 2f 40 be ee d2 e2 3d
       -0.10673628 -0.049053777 -0.18768227 0.11075388
0003a0 ed 7c 93 3c 5e 29 fe bd 1e 71 42 3d 14 05 52 be
       0.018003905 -0.12410234 0.04747116 -0.2050975
0003b0 bd c1 ee bd fb 15 96 bd 3a 79 42 bd b3 5c 84 3d
       -0.116580464 -0.07328411 -0.047478892 0.064629935
0003c0 43 03 af bd 3a 01 ff 3d fc 7f 80 bd 92 5b f8 bd
       -0.08545544 0.12451406 -0.06274411 -0.12126841
0003d0 f2 18 02 be 73 b5 ef bd 86 c0 1b 3e 3a 8d 42 bd
       -0.12704828 -0.117045306 0.1521016 -0.047497965
0003e0 19 59 c8 bd bf ad 02 3e 0b fa d4 bc 2b c0 1d bd
       -0.09782619 0.12761591 -0.025998136 -0.038513344
0003f0 9b 52 25 be 0c ca e0 bd ec 4e 3b be a4 df 08 3e
       -0.16144793 -0.109760374 -0.18291825 0.13366562

conv2.bias f4 [16]
000000 aa 1f 03 3d 61 3e 79 bb 2c fe a8 bd bf e8 f3 bc
       0.03201262 -0.0038031565 -0.082516044 -0.029774068
000010 53 f4 51 bb 49 fd a8 bc 3d d9 99 bc 57 d3 30 be
       -0.0032036498 -0.020628588 -0.018780345 -0.1726812
000020 57 ab b2 bd 6e d1 ca bc 29 09 5a 3a 9b 50 80 bd
       -0.08724087 -0.024758067 0.0008317405 -0.06265374
000030 04 9e ad bd 48 50 ae bc 1e 71 ce bd a0 41 f0 3b
       -0.08477405 -0.021278515 -0.10080169 0.007332042

fc1.weight f4 [256, 400]
000000 ed ae 7f 3d bf 3e 91 3d 7b 2a d0 3d 11 5e 2a 3d
       0.06242268 0.07092046 0.101643525 0.041593615
000010 03 c6 db 3d e9 46 a4 3d 2e fd 34 3c 4e 13 5e 3d
       0.10731127 0.080213375 0.011046691 0.05421763
000020 da 66 21 3d 27 bc 03 3e 5b de b9 bc 41 4a 2f bc
       0.039404728 0.12864743 -0.022689035 -0.010698856
000030 f3 4e d9 bb 0b 69 4d 3d 9d 81 bc 3d 28 2f a8 3d
       -0.006631726 0.050149005 0.09204409 0.08212119
000040 cd d6 82 3d f3 a5 89 3d 5c c5 75 3d 28 bf 13 3e
       0.06388626 0.067211054 0.06000267 0.14428389
000050 aa f6 4b 3d 2b 64 8b 3d 52 af b2 3c af ea 9e 3d
       0.049795784 0.06806215 0.021812115 0.07759606
000060 11 41 e5 bc c1 03 fa 3d 56 9a dd bc fe 18 f2 3c
       -0.027985128 0.12207747 -0.027051132 0.029552933
000070 7b d9 31 3e 0e 46 12 3e 7f 5f fc 3d c7 cc 50 3c
       0.17368118 0.14284536 0.12322902 0.012744135
000080 51 86 e6 39 b5 97 b3 3c 7c 93 6b bd cb 57 8a 3d
       0.00043969092 0.021922925 -0.0575137 0.067550264
000090 1e e3 cf bc 4f ff 08 3d b7 da 0e 3e c2 b2 c1 3b
       -0.025376853 0.033446606 0.1395062 0.005911202
0000a0 89 a8 71 3d 8a 05 32 bb 45 d6 2d bd 5c 31 2f 3e
       0.05899862 -0.0027163946 -0.04244067 0.17108673
0000b0 33 6c de 3d 4c 4f 26 be 50 63 c6 bd 6f 8a 31 bd
       0.10860481 -0.16241187 -0.09686911 -0.04334491
0000c0 67 9a d6 3d 00 6b f1 bc 24 c6 41 bd 1a 7f db 3c
       0.10478669 -0.029469967 -0.047308102 0.026794005
0000d0 c2 67 45 bd fa 01 10 3d 4f 49 12 3d 58 68 87 3d
       -0.048194654 0.035158135 0.035714444 0.06611699
0000e0 d7 1b fc bc 90 aa 44 bc 32 3a 40 bd 63 2a 20 bd
       -0.030774994 -0.012003556 -0.0469305 -0.039102923
0000f0 a9 84 d1 3c f4 d5 62 bd 16 c3 9e bd ec 26 20 3b
       0.025575953 -0.055379823 -0.077520534 0.0024437262
000100 ab 7f 57 bd 14 cd b1 3d b7 a0 32 bd 95 f0 a2 3d
       -0.052611988 0.08681694 -0.0436103 0.07956044
000110 a0 c0 fd 3d 49 89 2d 3d 22 c0 bf bd ed ee e2 bd
       0.12390256 0.042367253 -0.09362818 -0.11080728
000120 f2 32 9e bd 4a d7 a7 3b 0f 08 bd bd 71 a6 ca bd
       -0.07724561 0.0051221 -0.09230053 -0.098950274
000130 2f 26 6f bc f6 03 3e bd 0a 28 a6 bd 5b 51 de bd
       -0.014596506 -0.046390496 -0.081131056 -0.10855361
000140 21 9b 28 bc c8 6b 85 bd 6a c2 2b bb bc 2e f4 bd
       -0.010290892 -0.06514698 -0.002620841 -0.119229764
000150 89 25 39 bd 07 63 80 bd 51 40 ac bd b9 20 02 bd
       -0.045201812 -0.06268888 -0.08410705 -0.031769488
000160 77 b1 dc 3c 83 78 30 bd b6 30 da bd a8 0d 0c be
       0.02694009 -0.04308368 -0.10653822 -0.13677084
000170 50 ba ac bd b8 58 10 be 8c d9 da bd cf 5a af bd
       -0.08433974 -0.14096344 -0.10686025 -0.08562242
000180 50 88 a9 bc c7 d9 3e bd 98 56 c0 bb 05 f3 06 bd
       -0.020694882 -0.046594407 -0.005869698 -0.032946605
000190 43 4c a8 3d aa 6e 1b bd 84 78 aa 3d 36 a2 b8 3d
       0.08217671 -0.037947334 0.08323768 0.09015314
0001a0 d3 5b 9c 3c a5 5a 09 3d 08 dc 4d bd d1 d6 a1 3c
       0.019086754 0.03353371 -0.050258666 0.019755753
0001b0 96 7c 21 bd 9c 78 36 bc 65 e0 03 bd 57 9f 89 bd
       -0.039425455 -0.011137154 -0.03219642 -0.06719845
0001c0 dd 10 fb 3c 8c aa 82 3b e0 a5 63 3d 2d f3 25 3b
       0.03064769 0.003987616 0.055578113 0.0025321946
0001d0 05 73 4a bd b9 80 36 bd 7c 83 ac bb 11 40 99 bd
       -0.049426097 -0.044556353 -0.0052646976 -0.07482923
0001e0 5c a5 73 3b 06 3d 15 be f4 94 cb bd 40 db 07 3c
       0.003717742 -0.1457406 -0.0994052 0.008292019
0001f0 5a be 5a bc d6 da ea 3d 77 56 c6 bc 93 dc ab bd
       -0.013351047 0.11467521 -0.024211152 -0.083916806
000200 12 1d 07 3d dc 90 00 bd 50 11 95 bd 9a c8 ee bd
       0.032986708 -0.03138815 -0.07278693 -0.116593555
000210 d3 6c e7 3c f9 b6 c6 bd 1f 3f 04 bd 57 7d a1 bd
       0.028250134 -0.09702868 -0.03228676 -0.07885235
000220 8b 15 92 bc 29 4a 9c 3d c2 26 ae b8 df 41 3c 3b
       -0.017832538 0.076313324 -8.304186e-05 0.0028725786
000230 fa 26 3b bd 13 b5 9a 3c 06 27 95 bd e7 6a c6 bd
       -0.045691468 0.018885171 -0.07282834 -0.09688359
000240 81 70 f9 3c 52 5a a3 bd 29 75 7c bc 49 cd 06 bd
       0.030449154 -0.079762116 -0.0154087925 -0.03291062
000250 c4 08 30 bd d5 09 8a ba 1d d0 55 3d ab b4 96 3b
       -0.04297711 -0.0010531495 0.052200425 0.004599174
000260 92 fe f4 3d 27 1e 82 3d a5 0d b2 3d e7 1d 9e 3c
       0.11962618 0.06353407 0.08694009 0.019301368
000270 3d ff 19 bd 42 58 b7 bd 99 c2 e5 bc 82 b9 12 bd
       -0.03759693 -0.08952381 -0.028046893 -0.035821445
000280 4d 10 86 bd 8a 96 28 be aa f5 29 be d9 c2 c9 3c
       -0.06546078 -0.16463676 -0.1659762 0.024629043
000290 18 bc 47 bd 18 c0 da 3d b7 12 a2 3c 1a 2a 73 3c
       -0.048763365 0.1068117 0.019784315 0.014841581
0002a0 b1 7d 6f 3e be 69 f4 3d 62 62 62 bd c1 45 2c bd
       0.23387791 0.11934231 -0.055269606 -0.04205871
0002b0 61 e3 85 bd 0d be 42 3d ab 16 af 3d 4d 3c e6 bc
       -0.0653751 0.047544528 0.085492454 -0.028104926
0002c0 11 f8 b2 3c 8f 89 11 bb 86 ff 3f 3d be fe 82 3c
       0.021846803 -0.0022207235 0.046874546 0.015990611
0002d0 f9 bd 00 bd eb b8 e3 3c 3a 4f e1 3b a3 3a f4 bc
       -0.031431172 0.027798137 0.0068758996 -0.029813116
0002e0 36 6c 19 bd 06 03 f8 3d d6 7b f8 3d 61 4b a5 3d
       -0.037456714 0.12109952 0.12132995 0.08071018
0002f0 9d 77 b6 3c 16 80 a4 bc 17 e0 36 3e f3 28 19 3d
       0.022273833 -0.020080607 0.17858921 0.037392568
000300 fa e9 d6 3d 6f 8c 28 bb d5 f3 4c bb 43 ae 27 3e
       0.10493846 -0.002571847 -0.0031273265 0.1637507
000310 90 41 e3 bc f8 68 b9 3b 60 8f f2 bc fa 17 b1 3c
       -0.027741224 0.005658265 -0.029609382 0.021617878
000320 5c 65 e8 bc 56 24 01 bd 57 ef 51 3b d7 a4 3e bc
       -0.028368644 -0.031528793 0.0032033527 -0.011635981
000330 82 33 e1 bc c1 c4 8e bd 59 a8 9b bd 96 b5 5d bd
       -0.027490381 -0.069711216 -0.07600469 -0.054128252
000340 01 23 91 bb 6d c1 85 bd 35 25 fa bc 6f c1 98 bd
       -0.0044292216 -0.06531034 -0.03053532 -0.074587695
000350 3b e8 48 bd 82 77 30 bd 4e 26 37 3d 45 02 0b bd
       -0.049049597 -0.04308272 0.044714265 -0.03393771
000360 45 dc 88 bd 2e 6a bd 3c 74 c2 4c bc 43 db e3 3c
       -0.06682638 0.02312192 -0.012497533 0.027814513
000370 53 df 94 bc 0c 0e e6 ba a6 da 9f bc 97 96 1d 3c
       -0.018172896 -0.0017551794 -0.01951344 0.009618423
000380 84 08 74 3d c3 2a c5 bb ac 4e 8d bd 18 78 46 bb
       0.059578434 -0.0060170605 -0.06899771 -0.0030283984
000390 14 90 5a 3c 6c ce 9b bd 9d 8f d0 bc b5 89 75 bd
       0.013340015 -0.07607731 -0.025459105 -0.05994578
0003a0 37 f0 9d 3b 70 fe e3 3c 31 60 34 bb 7c cf b3 bc
       0.0048198956 0.027831286 -0.0027523155 -0.021949522
0003b0 d8 f7 09 bd 8a 8f b7 bc 77 68 a6 3c db 1e 9a bc
       -0.033683628 -0.022407312 0.020313485 -0.018813541
0003c0 dd 9f 5c bc cd 3d bc 3c 0a c2 43 bd 68 8a 54 bd
       -0.013465849 0.022978688 -0.047792472 -0.051889807
0003d0 7a a0 17 bd 12 5a cd bd c8 5e 8a bd db e7 0f bd
       -0.037018277 -0.10026945 -0.06756359 -0.035133224
0003e0 ca 3b 25 bd 32 2b e9 3c 84 e3 b6 3d d0 7d 2e 3e
       -0.040340222 0.02846298 0.08930114 0.17040181
0003f0 6e 77 f4 3d ce 53 c4 3d a3 50 26 3e ef 01 02 3d
       0.11936842 0.09586297 0.16241698 0.031740125

fc1.bias f4 [256]
000000 f8 4c 81 3d dd 95 59 bd e9 42 98 3c 78 d2 18 3d
       0.06313509 -0.053121436 0.018586593 0.037310094
000010 60 36 ef 3c e2 ac 79 bb 9c 2c 91 3b 0c 37 52 3d
       0.029200733 -0.003809743 0.0044303667 0.051322028
000020 07 8a 4e bc a4 1e 9d 3c dc 87 3e bd ac 55 74 bd
       -0.0126061505 0.01917965 -0.046516284 -0.059652016
000030 f8 dc bc 3c f4 38 89 3d f5 de 2c 3c f1 10 49 bd
       0.023054585 0.06700316 0.010551204 -0.049088422
000040 10 4d c9 bc 34 87 16 bd d0 ed b3 3c 07 33 4d 3d
       -0.02457288 -0.036750033 0.021963984 0.05009749
000050 7a c0 8f bc c6 98 46 3c dc f5 f3 bb ff 68 0d bd
       -0.017547835 0.012121385 -0.00744508 -0.03452396
000060 ae 0e 06 bd 66 46 c2 bc 07 96 87 bc 49 14 3e bd
       -0.032728843 -0.02371521 -0.01655103 -0.046406064
000070 c5 04 22 bc af fb 60 3d 77 13 92 bd 51 9a 4b 3d
       -0.009888832 0.054927524 -0.07132619 0.049707714
000080 b9 90 34 3d 11 c1 09 3d 0c 99 6c bd 70 a3 01 bd
       0.04408333 0.033631388 -0.057763144 -0.031650007
000090 c8 a3 66 3c e8 c3 5f 3d 22 f8 42 3d 3a 77 4f 3d
       0.014077134 0.05463019 0.04759992 0.050650813
0000a0 be 39 47 bd 3b 78 38 3d ee 12 6b bc a7 57 bf 3c
       -0.04863905 0.045036536 -0.014347775 0.023357226
0000b0 ef fb 20 bd 60 16 15 3c 89 77 92 3d 7a 93 99 ba
       -0.039302763 0.009099573 0.07151706 -0.0011716925
0000c0 81 4a bc bc 2b 6d 83 bc 7c 93 61 bd d5 52 02 bd
       -0.022984745 -0.016043266 -0.055072293 -0.031817276
0000d0 99 9e 49 bd 4d 0a 14 bc aa a4 b2 3c d6 f8 44 3d
       -0.049223516 -0.009035659 0.021807034 0.04808887
0000e0 ab 63 88 3c c5 29 0c 3d 9d 83 0e bb f8 be 99 bd
       0.016649088 0.034219522 -0.0021745928 -0.075071275
0000f0 84 20 89 bc 46 93 76 3c 10 c8 f9 bc 7d 3e 93 bd
       -0.016739137 0.015049761 -0.030490905 -0.07189653
000100 81 84 d5 bc f8 c0 41 3d 03 e4 b7 3c e2 f6 b9 bc
       -0.02606416 0.04730317 0.022447592 -0.02270073
000110 db c8 6a 3d 1d 9f 25 bd 53 98 07 3d aa f1 19 3c
       0.057320457 -0.040434945 0.033104252 0.009395996
000120 84 7f 3e bd ff 85 91 b8 5b 3d 14 bd ee 54 1b bd
       -0.046508327 -6.9390975e-05 -0.036191326 -0.037922792
000130 34 83 ed bd 36 b8 fe bc ab 90 c3 3c 75 08 8f bd
       -0.11597291 -0.031093698 0.023872694 -0.06984035
000140 5e 8e 59 3d 75 b8 6e bd 3e 27 e8 bc a0 68 85 bd
       0.053114288 -0.05828138 -0.028339025 -0.06514096
000150 2e d2 9e bc f9 6d 21 bc 6b 6d 36 bd b1 dd 00 bd
       -0.01938733 -0.00985288 -0.044537943 -0.03146142
000160 a6 15 11 bd 53 60 ba bc 0d f2 a9 bd 51 65 b5 3c
       -0.035421036 -0.02275101 -0.08298121 0.022143038
000170 5a 7c 32 3d c6 76 e2 bb a2 6a 73 bd e5 32 0d bc
       0.043575622 -0.0069111316 -0.059427865 -0.008618091
000180 5f b0 9b bc 78 3e 98 3d f6 87 22 3c 43 03 3b bb
       -0.019004999 0.0743379 0.009920111 -0.002853588
000190 fd d2 a6 ba f7 f1 87 bd e6 5d 48 3c bf e4 cd bc
       -0.0012727674 -0.06637948 0.012229418 -0.025133489
0001a0 6b 67 13 bd b7 4e fb 3b ca cb 5a 3d ec c6 ef bc
       -0.0359873 0.0076692956 0.053417005 -0.029269658
0001b0 33 ff aa bc ec f5 60 3c 16 5b f7 bc d1 82 6e 3c
       -0.020873642 0.013730507 -0.0301948 0.014557556
0001c0 33 c4 1b 3d 03 70 87 bc ac 79 e7 bc 18 4e 5f bd
       0.038028907 -0.016532904 -0.02825626 -0.054517835
0001d0 82 17 a1 3c 69 49 86 3d bb d9 38 3d 96 c3 92 bd
       0.01966453 0.065569706 0.04512952 -0.07166211
0001e0 df d7 85 3d 2a 77 2d bd 15 5f 66 bb 65 ce c5 3c
       0.06535315 -0.04234997 -0.0035151888 0.024146268
0001f0 12 a1 46 3d 01 1a 37 3d 97 3d 84 bd eb a4 c9 3c
       0.048493452 0.044702534 -0.0645706 0.024614772
000200 f0 d3 71 bd c0 dd 80 3c 5d 43 89 3c 20 3c f5 ba
       -0.05904001 0.015730739 0.016755754 -0.0018709935
000210 34 4c 6c ba 7b 61 9f ba a0 e6 89 3d 0e 1e 93 3c
       -0.00090140407 -0.0012159789 0.06733441 0.017958667
000220 74 f6 40 3d 67 f9 83 3d 2c fa 3b bd 7a db 1e 3c
       0.047110036 0.06444054 -0.04589288 0.009695882
000230 98 72 ae bc 50 84 59 bd 0b 7f 49 bd c1 43 5f 3c
       -0.021294877 -0.0531047 -0.049193423 0.013626994
000240 7e 00 49 3d 88 00 fe 3c be 41 3a bd f2 3a b9 bd
       0.049072735 0.031006113 -0.045472853 -0.09044446
000250 39 a1 68 bd dd a2 8f 3d 41 c7 26 bd 5e 6e 0c 3d
       -0.05679438 0.070134856 -0.040717367 0.03428494
000260 ec 98 bf 3c dd b8 66 3d c2 40 9d bd c0 22 60 bd
       0.023388349 0.056328643 -0.07678367 -0.05472064
000270 00 17 59 3c 58 d5 72 3d 1a 48 29 bd 3b 52 82 3b
       0.0132501125 0.05928549 -0.041328527 0.003977088
000280 85 3f 69 bb fc b4 af 3c 29 ea c4 3a 1e c8 52 3d
       -0.003559084 0.021448605 0.0015023398 0.051460378
000290 6f 9e cc bc b3 2c 37 3d 81 5d f5 bc 0d 0f 64 3c
       -0.02497789 0.044720363 -0.029951813 0.013919604
0002a0 85 fa 4d 3d b3 76 16 3d a1 a7 ed 3c e6 24 a5 3c
       0.050287742 0.036734294 0.029010596 0.020159196
0002b0 e2 77 1a bd 5d 36 55 bd 90 b0 2d 3c 12 da 4c 3d
       -0.037711985 -0.052053798 0.010601178 0.050012656
0002c0 0d 18 87 3d 0c 37 62 bd 9d 0c 15 ba 2f 93 91 bd
       0.06596384 -0.055228278 -0.00056857785 -0.07108151
0002d0 a0 d7 22 bd a2 0d 4e bd 49 5d 09 3d aa 41 12 3c
       -0.039756417 -0.05030597 0.03353623 0.008926788
0002e0 a7 cc 2e bd 50 a3 f1 3c 44 ec 7c 3d db 27 00 bd
       -0.04267564 0.029496819 0.061748758 -0.03128801
0002f0 ad df 62 bd 8a b4 a7 bc e8 c7 56 bd 21 15 20 bd
       -0.055389095 -0.02047183 -0.05243674 -0.03908265
000300 17 34 18 3d f0 2c b7 bd e0 28 1c 3d ba b6 fa bc
       0.03715905 -0.08944118 0.03812492 -0.030604709
000310 79 6e e4 bc 1a ab c0 bd 8c 66 ad 3b f0 3d 9b 3d
       -0.027884709 -0.09407635 0.0052917656 0.07580173
000320 63 9e e1 bc db 4b 73 3c f4 03 af bb 61 f3 59 b9
       -0.027541345 0.014849628 -0.0053410474 -0.00020785398
000330 97 ea 0b bd 9a 89 11 3d 6b d4 0d 3b c4 f6 01 bd
       -0.03415927 0.035531618 0.0021641504 -0.031729475
000340 71 f3 b3 3c 03 ed 2c bd 7b 61 f8 3a 80 bb 35 bd
       0.021966668 -0.04221822 0.001894995 -0.044368267
000350 9c 6f 25 bc 09 bc 44 bd 69 24 0e bd 8f c2 05 3d
       -0.0100974105 -0.048030887 -0.034702692 0.03265625
000360 da d8 c9 3a d8 a4 40 3d 9f 49 32 bd f4 43 cc 3c
       0.001539971 0.047032207 -0.04352724 0.024934746
000370 b2 ed 50 3d da 64 6b 3d 8b ca 43 3d ab c3 7f 3d
       0.051007934 0.057469226 0.047800582 0.062442463
000380 e3 13 89 bd c9 e7 97 3d 0a 80 9d ba c3 8f 01 3d
       -0.06693246 0.074172564 -0.0012016308 0.031631242
000390 47 c2 63 bc 80 d7 c7 3b d6 5c dc 3c 0f 08 92 3c
       -0.0139013 0.0060986876 0.026899736 0.017826108
0003a0 1f 31 9d bb f3 c1 ac bc 36 34 7a bc a9 72 ae 3c
       -0.0047971155 -0.021088576 -0.015271237 0.021294909
0003b0 37 c7 7d bd 68 36 92 3c ed 9c 52 bc 5d dc 0e 3b
       -0.061957564 0.017848209 -0.012854797 0.0021798827
0003c0 79 93 37 bd 1c 72 a4 bd 3f d1 fa bb ca 39 09 bd
       -0.044818375 -0.08029577 -0.0076543386 -0.033502378
0003d0 af 5a a4 3d c2 57 b7 3b f4 44 fa bc c5 6e 2b bd
       0.08025109 0.0055951783 -0.030550458 -0.041853685
0003e0 a1 2c 67 bd ae d0 19 3d d3 e9 15 bd d4 44 28 3d
       -0.056439046 0.037552528 -0.036599945 0.041081265
0003f0 fd 37 eb 3c e7 9d 01 bd b8 57 30 3d af 32 38 3c
       0.02871322 -0.031644728 0.043052405 0.011242553

fc2.weight f4 [2, 256]
000000 5c 14 5b bd bf eb d3 bb f8 1b d4 bd 97 b7 88 3d
       -0.053486213 -0.006467312 -0.10356897 0.06675642
000010 7b e6 c1 bd 53 ca 2a 3d 42 76 c9 3c 3a 34 ee bd
       -0.09467789 0.041696858 0.024592523 -0.11631055
000020 89 19 3f 3d 61 62 30 3d 8e de 64 bc 52 1b 43 3b
       0.04665521 0.04306257 -0.013969077 0.0029770923
000030 02 92 01 3d ec dc 7f bd e7 d5 84 bd 27 7c a4 bc
       0.031633385 -0.062466547 -0.06486111 -0.020078732
000040 ae 9e 89 3c de 82 59 bd 06 11 56 bd 8c 42 3c bd
       0.016799297 -0.05310332 -0.05226233 -0.0459619
000050 ac f0 13 3d df 14 9a 3d a0 7b 4a 3c 26 88 e6 3c
       0.036118194 0.07523512 0.012358576 0.028141093
000060 c6 da 87 3d 98 ae 30 bd 86 69 b1 3d 68 1d a2 bd
       0.066335246 -0.043135256 0.08662705 -0.07915765
000070 bc 62 a3 3d b2 0a fb bd ae ac 07 bd 52 bd a1 bc
       0.079778165 -0.12257899 -0.033123665 -0.019743595
000080 10 3e ba bd 7d 28 2a bd b3 96 34 bc c0 9a e9 bc
       -0.09093869 -0.04154252 -0.011022258 -0.028516173
000090 1f 91 9b 3d 71 4e d1 bd c4 2b ce bd de 2a b4 bd
       0.07596039 -0.1022004 -0.100669414 -0.08797239
0000a0 44 68 80 bc ba 2e bf bd d0 b5 84 3c f4 ea a1 bd
       -0.015674718 -0.09335084 0.016199976 -0.07906142
0000b0 1b a0 bc 3c da 8f 40 3d 5b 8b 4f bd f8 d2 2b 3d
       0.023025563 0.047012188 -0.05067001 0.041949242
0000c0 b4 32 3b bc e1 a0 5e 3d e6 d2 de 3c b2 f0 3c ba
       -0.011425663 0.054352645 0.027200174 -0.0007207497
0000d0 89 3f 44 3d 55 ff 8e bd b1 fc 0a 3d cf 15 16 bd
       0.047912154 -0.069822945 0.03393239 -0.036641892
0000e0 05 ab 79 bd bd 7a fc bd 19 6f 15 3d 84 b4 06 bd
       -0.060954113 -0.12328098 0.036482904 -0.032886997
0000f0 49 65 c3 3c e1 63 9a 3b 13 0e 5b bd 79 0f ea bc
       0.023852007 0.0047116135 -0.05348022 -0.028571831
000100 e5 23 69 bc 3c 4c ec bc 10 c8 a9 3d 3c 5e 7d bd
       -0.014229749 -0.028844945 0.08290112 -0.061857447
000110 ea bb 80 bd 6a 44 0e bc cf 8e 8a 3a d7 05 e9 bd
       -0.06285842 -0.008683303 0.0010571125 -0.11378067
000120 24 22 13 bd 66 c5 da 3c f3 64 20 3d c7 4c 17 bb
       -0.03592123 0.026705455 0.039158773 -0.0023086534
000130 7c 0f 28 3d be 89 12 3d 85 d6 b6 bd 46 48 a2 bc
       0.041030392 0.035775892 -0.08927635 -0.019809853
000140 a9 fd 27 bd e7 b6 36 3d ca 1f c1 ba d5 2b d3 3c
       -0.041013394 0.044608023 -0.0014734205 0.025777737
000150 d3 9c 64 3d f4 99 12 3d da 6f 23 3b 2b b9 c8 3d
       0.05581362 0.035791352 0.0024938495 0.09800943
000160 c1 6f 7b bd 53 e4 40 3d f3 73 e9 3c 15 e1 98 bd
       -0.061385874 0.047092747 0.028497672 -0.07464806
000170 7d d9 9b bd 2d fb b6 3d 49 8d f9 bc 0a b8 08 3c
       -0.07609842 0.08934627 -0.030462878 0.00834466
000180 41 5d 39 bc c6 dc f2 bd 63 14 a2 3c a1 90 8d 3c
       -0.011313737 -0.118585154 0.019785112 0.017280878
000190 db 5d 9f bc b4 7c 41 bd 74 39 a9 bd b6 84 5c 3d
       -0.019453933 -0.047238067 -0.082629114 0.0538375
0001a0 03 32 b3 bb ed 2b 1b bb 30 91 83 bd f9 61 a4 3d
       -0.0054686083 -0.0023677305 -0.06424177 0.08026499
0001b0 a6 6a 20 bd 64 3f 86 bd fe 16 95 3c 93 33 b1 3d
       -0.039164208 -0.065550596 0.01819944 0.08652415
0001c0 6b 59 3c bd ee 03 78 3d 8b 69 4b 3c d2 79 54 3d
       -0.045983713 0.060550623 0.0124153 0.05187399
0001d0 9f 85 d3 bd 9f b4 a1 bd 3f 73 e1 bc e6 20 b6 bc
       -0.103282206 -0.07895779 -0.027520774 -0.022232484
0001e0 7c 97 f8 bd e3 df 3a 3d 77 47 94 bd 22 ee 85 bd
       -0.12138268 0.04562367 -0.07240193 -0.06539561
0001f0 dd ce 56 bd 89 a6 84 bd 93 a6 f3 ba 50 db 25 bd
       -0.052443374 -0.064770766 -0.0018589072 -0.040492356
000200 88 b4 13 3d d7 63 bb 3d ad 6a 7d 3d 2c 42 0c bd
       0.03606084 0.09149902 0.061869312 -0.034242794
000210 54 e1 57 3d 04 02 64 bc 5d 43 81 bc f7 3f 84 3d
       0.052705124 -0.013916496 -0.015779192 0.06457513
000220 b0 11 98 bd 2e f1 82 bd 5b 58 76 3d e5 11 36 bd
       -0.074252486 -0.063936576 0.060142856 -0.04445066
000230 31 fc 63 3b eb 92 a7 3c 25 31 0b 3d c3 50 f0 3b
       0.003478777 0.020455798 0.033982415 0.0073338463
000240 5c ea 48 bd f4 f5 30 bd 17 e5 40 3d 90 9b 08 bb
       -0.049051628 -0.04320331 0.047093477 -0.0020844676
000250 9f 06 b3 bc d0 f9 bc bd 3c 54 fc 3d 8e 2a 4c bd
       -0.021853743 -0.092273355 0.12320754 -0.04984527
000260 25 af 86 bd b3 4b da bd e6 61 03 bb 84 d4 38 3d
       -0.06576375 -0.1065897 -0.0020047366 0.045124546
000270 d4 6a fd 3c 5a ba dd bd a4 3e d5 3c 25 d9 a5 3c
       0.030934729 -0.10826559 0.026030846 0.020245144
000280 14 ba 52 bd fc 3d a7 3d 78 8e b4 3d ed 19 60 bd
       -0.05144699 0.081661195 0.08816236 -0.054712225
000290 98 0d c0 bd 30 1a 91 bd ae 63 d5 bb d0 51 3e 3c
       -0.09377593 -0.07085073 -0.006512127 0.011616185
0002a0 85 00 9d bd 2b b7 cc bd 83 9d 8f bc cc 15 ca bd
       -0.07666115 -0.09995874 -0.017531162 -0.09867439
0002b0 1f 08 ed bc 2d 82 ca 3b 48 d4 97 3c 6c e6 c3 bd
       -0.028934537 0.006180069 0.01853384 -0.09565434
0002c0 f8 61 8c bd 68 66 1e 3a 8f a2 7f bd e1 49 a5 3d
       -0.068546236 0.00060424814 -0.062410887 0.08070732
0002d0 20 47 29 3d f1 8e a5 3b 2d ad 9c bd 2a aa ee 3c
       0.041327596 0.0050524403 -0.07650218 0.029133875
0002e0 c2 a3 5a 3d 7f 4a d2 bd 81 2f e4 bd 5e 1d ec bc
       0.053378828 -0.10268115 -0.11141873 -0.028822597
0002f0 60 bb 7e bc 13 c1 16 3d 42 a6 e6 3c 2a c6 fc 3c
       -0.015547603 0.036805224 0.02815545 0.03085621
000300 35 2b 4f bd 83 9f 19 bd f6 eb 48 bc 74 7a b3 3b
       -0.050578315 -0.037505638 -0.012263289 0.005477244
000310 b3 c3 0a bd 43 0d 27 bd 96 a7 e2 bc f2 b6 68 bd
       -0.03387804 -0.04078413 -0.027667802 -0.056815095
000320 fa 3a 5f bb 68 14 94 3d 87 42 e6 3b 27 71 94 bd
       -0.0034062252 0.07230455 0.0070269736 -0.072481446
000330 ee f6 a6 3c 16 ca 0c be ff e6 28 bd e7 21 85 3d
       0.020381417 -0.13748965 -0.04123592 0.06500607
000340 d6 33 70 3d db 7d e3 3c c2 ba ed bd cf 33 c1 bc
       0.058643185 0.027769974 -0.11607887 -0.023584275
000350 53 f4 19 3d c3 0f 1a 3c 54 ea ce bc db 27 da bd
       0.03758652 0.009403172 -0.02525822 -0.10652133
000360 c1 a7 ac 3d 97 94 31 3d 49 95 19 3d 8e eb 17 bd
       0.08430434 0.043354597 0.037495885 -0.037089877
000370 24 78 71 bd ea 94 92 bd df 4f 02 be 9a f0 a2 bd
       -0.058952466 -0.07157309 -0.12725781 -0.07956047
000380 34 44 20 bc 78 b2 17 bd 54 dc 8b 3d 5b 89 db bd
       -0.009781886 -0.037035435 0.06829134 -0.10719558
000390 2a b2 ea bc 4d 27 50 3d 9a ea 49 bd 04 9c 94 3c
       -0.028649408 0.05081873 -0.049296 0.0181408
0003a0 5e 91 88 bd 61 d6 60 3d b1 e0 61 3d 28 12 6f bd
       -0.066683516 0.054891948 0.055145923 -0.058366925
0003b0 7f 23 a0 3c 3d df 32 bc a7 0a 6e 3d 08 31 43 bd
       0.019548176 -0.010917482 0.058115628 -0.04765418
0003c0 df 37 d8 3d df d1 1f 3d ef a8 6f bd 32 0d ff bc
       0.105575316 0.039018508 -0.058510717 -0.031134222
0003d0 db 79 b7 bd 6d 96 a4 3b 30 77 97 bc a5 11 bb 3b
       -0.08958789 0.005022815 -0.01848945 0.0057088905
0003e0 c5 1d 1c bd 6f 41 ce bd 94 5e 30 3d 2d 11 bb bd
       -0.038114328 -0.10071074 0.043058947 -0.091341354
0003f0 b7 05 8d bd 36 d1 04 3d 0f e1 a3 bd c9 e2 bc 3d
       -0.06885856 0.03242608 -0.08001911 0.09222943

fc2.bias f4 [2]
000000 03 d7 0e 3d 66 34 0c bc
       0.03487302 -0.008557415
